…
49.9s 174 val_list: /kaggle/working/benchmarking-generative-models-for-domain-adaptation/models/pspnet/lists/ego_ch/val.txt
49.9s 175 weight: initmodel/resnet50_v2.pth
49.9s 176 weight_decay: 0.0001
49.9s 177 workers: 2
49.9s 178 world_size: 1
49.9s 179 zoom_factor: 8
49.9s 180 [2026-02-11 17:23:20,101 INFO train.py line 149 187] => creating model ...
49.9s 181 INFO:main-logger:=> creating model ...
49.9s 182 [2026-02-11 17:23:20,101 INFO train.py line 150 187] Classes: 25
49.9s 183 INFO:main-logger:Classes: 25
49.9s 184 [2026-02-11 17:23:20,101 INFO train.py line 151 187] PSPNet(
49.9s 185 (criterion): CrossEntropyLoss()
49.9s 186 (layer0): Sequential(
49.9s 187 (0): Conv2d(3, 64, kernel_size=(3, 3), stride=(2, 2), padding=(1, 1), bias=False)
49.9s 188 (1): BatchNorm2d(64, eps=1e-05, momentum=0.1, affine=True, track_running_stats=True)
49.9s 189 (2): ReLU(inplace=True)
49.9s 190 (3): Conv2d(64, 64, kernel_size=(3, 3), stride=(1, 1), padding=(1, 1), bias=False)
49.9s 191 (4): BatchNorm2d(64, eps=1e-05, momentum=0.1, affine=True, track_running_stats=True)
49.9s 192 (5): ReLU(inplace=True)
49.9s 193 (6): Conv2d(64, 128, kernel_size=(3, 3), stride=(1, 1), padding=(1, 1), bias=False)
49.9s 194 (7): BatchNorm2d(128, eps=1e-05, momentum=0.1, affine=True, track_running_stats=True)
49.9s 195 (8): ReLU(inplace=True)
49.9s 196 (9): MaxPool2d(kernel_size=3, stride=2, padding=1, dilation=1, ceil_mode=False)
49.9s 197 )
49.9s 198 (layer1): Sequential(
49.9s 199 (0): Bottleneck(
49.9s 200 (conv1): Conv2d(128, 64, kernel_size=(1, 1), stride=(1, 1), bias=False)
49.9s 201 (bn1): BatchNorm2d(64, eps=1e-05, momentum=0.1, affine=True, track_running_stats=True)
49.9s 202 (conv2): Conv2d(64, 64, kernel_size=(3, 3), stride=(1, 1), padding=(1, 1), bias=False)
49.9s 203 (bn2): BatchNorm2d(64, eps=1e-05, momentum=0.1, affine=True, track_running_stats=True)
49.9s 204 (conv3): Conv2d(64, 256, kernel_size=(1, 1), stride=(1, 1), bias=False)
49.9s 205 (bn3): BatchNorm2d(256, eps=1e-05, momentum=0.1, affine=True, track_running_stats=True)
49.9s 206 (relu): ReLU(inplace=True)
49.9s 207 (downsample): Sequential(
49.9s 208 (0): Conv2d(128, 256, kernel_size=(1, 1), stride=(1, 1), bias=False)
49.9s 209 (1): BatchNorm2d(256, eps=1e-05, momentum=0.1, affine=True, track_running_stats=True)
49.9s 210 )
49.9s 211 )
49.9s 212 (1): Bottleneck(
49.9s 213 (conv1): Conv2d(256, 64, kernel_size=(1, 1), stride=(1, 1), bias=False)
49.9s 214 (bn1): BatchNorm2d(64, eps=1e-05, momentum=0.1, affine=True, track_running_stats=True)
49.9s 215 (conv2): Conv2d(64, 64, kernel_size=(3, 3), stride=(1, 1), padding=(1, 1), bias=False)
49.9s 216 (bn2): BatchNorm2d(64, eps=1e-05, momentum=0.1, affine=True, track_running_stats=True)
49.9s 217 (conv3): Conv2d(64, 256, kernel_size=(1, 1), stride=(1, 1), bias=False)
49.9s 218 (bn3): BatchNorm2d(256, eps=1e-05, momentum=0.1, affine=True, track_running_stats=True)
49.9s 219 (relu): ReLU(inplace=True)
49.9s 220 )
49.9s 221 (2): Bottleneck(
49.9s 222 (conv1): Conv2d(256, 64, kernel_size=(1, 1), stride=(1, 1), bias=False)
49.9s 223 (bn1): BatchNorm2d(64, eps=1e-05, momentum=0.1, affine=True, track_running_stats=True)
49.9s 224 (conv2): Conv2d(64, 64, kernel_size=(3, 3), stride=(1, 1), padding=(1, 1), bias=False)
49.9s 225 (bn2): BatchNorm2d(64, eps=1e-05, momentum=0.1, affine=True, track_running_stats=True)
49.9s 226 (conv3): Conv2d(64, 256, kernel_size=(1, 1), stride=(1, 1), bias=False)
49.9s 227 (bn3): BatchNorm2d(256, eps=1e-05, momentum=0.1, affine=True, track_running_stats=True)
49.9s 228 (relu): ReLU(inplace=True)
49.9s 229 )
49.9s 230 )
49.9s 231 (layer2): Sequential(
49.9s 232 (0): Bottleneck(
49.9s 233 (conv1): Conv2d(256, 128, kernel_size=(1, 1), stride=(1, 1), bias=False)
49.9s 234 (bn1): BatchNorm2d(128, eps=1e-05, momentum=0.1, affine=True, track_running_stats=True)
49.9s 235 (conv2): Conv2d(128, 128, kernel_size=(3, 3), stride=(2, 2), padding=(1, 1), bias=False)
49.9s 236 (bn2): BatchNorm2d(128, eps=1e-05, momentum=0.1, affine=True, track_running_stats=True)
49.9s 237 (conv3): Conv2d(128, 512, kernel_size=(1, 1), stride=(1, 1), bias=False)
49.9s 238 (bn3): BatchNorm2d(512, eps=1e-05, momentum=0.1, affine=True, track_running_stats=True)
49.9s 239 (relu): ReLU(inplace=True)
49.9s 240 (downsample): Sequential(
49.9s 241 (0): Conv2d(256, 512, kernel_size=(1, 1), stride=(2, 2), bias=False)
49.9s 242 (1): BatchNorm2d(512, eps=1e-05, momentum=0.1, affine=True, track_running_stats=True)
49.9s 243 )
49.9s 244 )
49.9s 245 (1): Bottleneck(
49.9s 246 (conv1): Conv2d(512, 128, kernel_size=(1, 1), stride=(1, 1), bias=False)
49.9s 247 (bn1): BatchNorm2d(128, eps=1e-05, momentum=0.1, affine=True, track_running_stats=True)
49.9s 248 (conv2): Conv2d(128, 128, kernel_size=(3, 3), stride=(1, 1), padding=(1, 1), bias=False)
49.9s 249 (bn2): BatchNorm2d(128, eps=1e-05, momentum=0.1, affine=True, track_running_stats=True)
49.9s 250 (conv3): Conv2d(128, 512, kernel_size=(1, 1), stride=(1, 1), bias=False)
49.9s 251 (bn3): BatchNorm2d(512, eps=1e-05, momentum=0.1, affine=True, track_running_stats=True)
49.9s 252 (relu): ReLU(inplace=True)
49.9s 253 )
49.9s 254 (2): Bottleneck(
49.9s 255 (conv1): Conv2d(512, 128, kernel_size=(1, 1), stride=(1, 1), bias=False)
49.9s 256 (bn1): BatchNorm2d(128, eps=1e-05, momentum=0.1, affine=True, track_running_stats=True)
49.9s 257 (conv2): Conv2d(128, 128, kernel_size=(3, 3), stride=(1, 1), padding=(1, 1), bias=False)
49.9s 258 (bn2): BatchNorm2d(128, eps=1e-05, momentum=0.1, affine=True, track_running_stats=True)
49.9s 259 (conv3): Conv2d(128, 512, kernel_size=(1, 1), stride=(1, 1), bias=False)
49.9s 260 (bn3): BatchNorm2d(512, eps=1e-05, momentum=0.1, affine=True, track_running_stats=True)
49.9s 261 (relu): ReLU(inplace=True)
49.9s 262 )
49.9s 263 (3): Bottleneck(
49.9s 264 (conv1): Conv2d(512, 128, kernel_size=(1, 1), stride=(1, 1), bias=False)
49.9s 265 (bn1): BatchNorm2d(128, eps=1e-05, momentum=0.1, affine=True, track_running_stats=True)
49.9s 266 (conv2): Conv2d(128, 128, kernel_size=(3, 3), stride=(1, 1), padding=(1, 1), bias=False)
49.9s 267 (bn2): BatchNorm2d(128, eps=1e-05, momentum=0.1, affine=True, track_running_stats=True)
49.9s 268 (conv3): Conv2d(128, 512, kernel_size=(1, 1), stride=(1, 1), bias=False)
49.9s 269 (bn3): BatchNorm2d(512, eps=1e-05, momentum=0.1, affine=True, track_running_stats=True)
49.9s 270 (relu): ReLU(inplace=True)
49.9s 271 )
49.9s 272 )
49.9s 273 (layer3): Sequential(
49.9s 274 (0): Bottleneck(
49.9s 275 (conv1): Conv2d(512, 256, kernel_size=(1, 1), stride=(1, 1), bias=False)
49.9s 276 (bn1): BatchNorm2d(256, eps=1e-05, momentum=0.1, affine=True, track_running_stats=True)
49.9s 277 (conv2): Conv2d(256, 256, kernel_size=(3, 3), stride=(1, 1), padding=(2, 2), dilation=(2, 2), bias=False)
49.9s 278 (bn2): BatchNorm2d(256, eps=1e-05, momentum=0.1, affine=True, track_running_stats=True)
49.9s 279 (conv3): Conv2d(256, 1024, kernel_size=(1, 1), stride=(1, 1), bias=False)
49.9s 280 (bn3): BatchNorm2d(1024, eps=1e-05, momentum=0.1, affine=True, track_running_stats=True)
49.9s 281 (relu): ReLU(inplace=True)
49.9s 282 (downsample): Sequential(
49.9s 283 (0): Conv2d(512, 1024, kernel_size=(1, 1), stride=(1, 1), bias=False)
49.9s 284 (1): BatchNorm2d(1024, eps=1e-05, momentum=0.1, affine=True, track_running_stats=True)
49.9s 285 )
49.9s 286 )
49.9s 287 (1): Bottleneck(
49.9s 288 (conv1): Conv2d(1024, 256, kernel_size=(1, 1), stride=(1, 1), bias=False)
49.9s 289 (bn1): BatchNorm2d(256, eps=1e-05, momentum=0.1, affine=True, track_running_stats=True)
49.9s 290 (conv2): Conv2d(256, 256, kernel_size=(3, 3), stride=(1, 1), padding=(2, 2), dilation=(2, 2), bias=False)
49.9s 291 (bn2): BatchNorm2d(256, eps=1e-05, momentum=0.1, affine=True, track_running_stats=True)
49.9s 292 (conv3): Conv2d(256, 1024, kernel_size=(1, 1), stride=(1, 1), bias=False)
49.9s 293 (bn3): BatchNorm2d(1024, eps=1e-05, momentum=0.1, affine=True, track_running_stats=True)
49.9s 294 (relu): ReLU(inplace=True)
49.9s 295 )
49.9s 296 (2): Bottleneck(
49.9s 297 (conv1): Conv2d(1024, 256, kernel_size=(1, 1), stride=(1, 1), bias=False)
49.9s 298 (bn1): BatchNorm2d(256, eps=1e-05, momentum=0.1, affine=True, track_running_stats=True)
49.9s 299 (conv2): Conv2d(256, 256, kernel_size=(3, 3), stride=(1, 1), padding=(2, 2), dilation=(2, 2), bias=False)
49.9s 300 (bn2): BatchNorm2d(256, eps=1e-05, momentum=0.1, affine=True, track_running_stats=True)
49.9s 301 (conv3): Conv2d(256, 1024, kernel_size=(1, 1), stride=(1, 1), bias=False)
49.9s 302 (bn3): BatchNorm2d(1024, eps=1e-05, momentum=0.1, affine=True, track_running_stats=True)
49.9s 303 (relu): ReLU(inplace=True)
49.9s 304 )
49.9s 305 (3): Bottleneck(
49.9s 306 (conv1): Conv2d(1024, 256, kernel_size=(1, 1), stride=(1, 1), bias=False)
49.9s 307 (bn1): BatchNorm2d(256, eps=1e-05, momentum=0.1, affine=True, track_running_stats=True)
49.9s 308 (conv2): Conv2d(256, 256, kernel_size=(3, 3), stride=(1, 1), padding=(2, 2), dilation=(2, 2), bias=False)
49.9s 309 (bn2): BatchNorm2d(256, eps=1e-05, momentum=0.1, affine=True, track_running_stats=True)
49.9s 310 (conv3): Conv2d(256, 1024, kernel_size=(1, 1), stride=(1, 1), bias=False)
49.9s 311 (bn3): BatchNorm2d(1024, eps=1e-05, momentum=0.1, affine=True, track_running_stats=True)
49.9s 312 (relu): ReLU(inplace=True)
49.9s 313 )
49.9s 314 (4): Bottleneck(
49.9s 315 (conv1): Conv2d(1024, 256, kernel_size=(1, 1), stride=(1, 1), bias=False)
49.9s 316 (bn1): BatchNorm2d(256, eps=1e-05, momentum=0.1, affine=True, track_running_stats=True)
49.9s 317 (conv2): Conv2d(256, 256, kernel_size=(3, 3), stride=(1, 1), padding=(2, 2), dilation=(2, 2), bias=False)
49.9s 318 (bn2): BatchNorm2d(256, eps=1e-05, momentum=0.1, affine=True, track_running_stats=True)
49.9s 319 (conv3): Conv2d(256, 1024, kernel_size=(1, 1), stride=(1, 1), bias=False)
49.9s 320 (bn3): BatchNorm2d(1024, eps=1e-05, momentum=0.1, affine=True, track_running_stats=True)
49.9s 321 (relu): ReLU(inplace=True)
49.9s 322 )
49.9s 323 (5): Bottleneck(
49.9s 324 (conv1): Conv2d(1024, 256, kernel_size=(1, 1), stride=(1, 1), bias=False)
49.9s 325 (bn1): BatchNorm2d(256, eps=1e-05, momentum=0.1, affine=True, track_running_stats=True)
49.9s 326 (conv2): Conv2d(256, 256, kernel_size=(3, 3), stride=(1, 1), padding=(2, 2), dilation=(2, 2), bias=False)
49.9s 327 (bn2): BatchNorm2d(256, eps=1e-05, momentum=0.1, affine=True, track_running_stats=True)
49.9s 328 (conv3): Conv2d(256, 1024, kernel_size=(1, 1), stride=(1, 1), bias=False)
49.9s 329 (bn3): BatchNorm2d(1024, eps=1e-05, momentum=0.1, affine=True, track_running_stats=True)
49.9s 330 (relu): ReLU(inplace=True)
49.9s 331 )
49.9s 332 )
49.9s 333 (layer4): Sequential(
49.9s 334 (0): Bottleneck(
49.9s 335 (conv1): Conv2d(1024, 512, kernel_size=(1, 1), stride=(1, 1), bias=False)
49.9s 336 (bn1): BatchNorm2d(512, eps=1e-05, momentum=0.1, affine=True, track_running_stats=True)
49.9s 337 (conv2): Conv2d(512, 512, kernel_size=(3, 3), stride=(1, 1), padding=(4, 4), dilation=(4, 4), bias=False)
49.9s 338 (bn2): BatchNorm2d(512, eps=1e-05, momentum=0.1, affine=True, track_running_stats=True)
49.9s 339 (conv3): Conv2d(512, 2048, kernel_size=(1, 1), stride=(1, 1), bias=False)
49.9s 340 (bn3): BatchNorm2d(2048, eps=1e-05, momentum=0.1, affine=True, track_running_stats=True)
49.9s 341 (relu): ReLU(inplace=True)
49.9s 342 (downsample): Sequential(
49.9s 343 (0): Conv2d(1024, 2048, kernel_size=(1, 1), stride=(1, 1), bias=False)
49.9s 344 (1): BatchNorm2d(2048, eps=1e-05, momentum=0.1, affine=True, track_running_stats=True)
49.9s 345 )
49.9s 346 )
49.9s 347 (1): Bottleneck(
49.9s 348 (conv1): Conv2d(2048, 512, kernel_size=(1, 1), stride=(1, 1), bias=False)
49.9s 349 (bn1): BatchNorm2d(512, eps=1e-05, momentum=0.1, affine=True, track_running_stats=True)
49.9s 350 (conv2): Conv2d(512, 512, kernel_size=(3, 3), stride=(1, 1), padding=(4, 4), dilation=(4, 4), bias=False)
49.9s 351 (bn2): BatchNorm2d(512, eps=1e-05, momentum=0.1, affine=True, track_running_stats=True)
49.9s 352 (conv3): Conv2d(512, 2048, kernel_size=(1, 1), stride=(1, 1), bias=False)
49.9s 353 (bn3): BatchNorm2d(2048, eps=1e-05, momentum=0.1, affine=True, track_running_stats=True)
49.9s 354 (relu): ReLU(inplace=True)
49.9s 355 )
49.9s 356 (2): Bottleneck(
49.9s 357 (conv1): Conv2d(2048, 512, kernel_size=(1, 1), stride=(1, 1), bias=False)
49.9s 358 (bn1): BatchNorm2d(512, eps=1e-05, momentum=0.1, affine=True, track_running_stats=True)
49.9s 359 (conv2): Conv2d(512, 512, kernel_size=(3, 3), stride=(1, 1), padding=(4, 4), dilation=(4, 4), bias=False)
49.9s 360 (bn2): BatchNorm2d(512, eps=1e-05, momentum=0.1, affine=True, track_running_stats=True)
49.9s 361 (conv3): Conv2d(512, 2048, kernel_size=(1, 1), stride=(1, 1), bias=False)
49.9s 362 (bn3): BatchNorm2d(2048, eps=1e-05, momentum=0.1, affine=True, track_running_stats=True)
49.9s 363 (relu): ReLU(inplace=True)
49.9s 364 )
49.9s 365 )
49.9s 366 (ppm): PPM(
49.9s 367 (features): ModuleList(
49.9s 368 (0): Sequential(
49.9s 369 (0): AdaptiveAvgPool2d(output_size=1)
49.9s 370 (1): Conv2d(2048, 512, kernel_size=(1, 1), stride=(1, 1), bias=False)
49.9s 371 (2): BatchNorm2d(512, eps=1e-05, momentum=0.1, affine=True, track_running_stats=True)
49.9s 372 (3): ReLU(inplace=True)
49.9s 373 )
49.9s 374 (1): Sequential(
49.9s 375 (0): AdaptiveAvgPool2d(output_size=2)
49.9s 376 (1): Conv2d(2048, 512, kernel_size=(1, 1), stride=(1, 1), bias=False)
49.9s 377 (2): BatchNorm2d(512, eps=1e-05, momentum=0.1, affine=True, track_running_stats=True)
49.9s 378 (3): ReLU(inplace=True)
49.9s 379 )
49.9s 380 (2): Sequential(
49.9s 381 (0): AdaptiveAvgPool2d(output_size=3)
49.9s 382 (1): Conv2d(2048, 512, kernel_size=(1, 1), stride=(1, 1), bias=False)
49.9s 383 (2): BatchNorm2d(512, eps=1e-05, momentum=0.1, affine=True, track_running_stats=True)
49.9s 384 (3): ReLU(inplace=True)
49.9s 385 )
49.9s 386 (3): Sequential(
49.9s 387 (0): AdaptiveAvgPool2d(output_size=6)
49.9s 388 (1): Conv2d(2048, 512, kernel_size=(1, 1), stride=(1, 1), bias=False)
49.9s 389 (2): BatchNorm2d(512, eps=1e-05, momentum=0.1, affine=True, track_running_stats=True)
49.9s 390 (3): ReLU(inplace=True)
49.9s 391 )
49.9s 392 )
49.9s 393 )
49.9s 394 (cls): Sequential(
49.9s 395 (0): Conv2d(4096, 512, kernel_size=(3, 3), stride=(1, 1), padding=(1, 1), bias=False)
49.9s 396 (1): BatchNorm2d(512, eps=1e-05, momentum=0.1, affine=True, track_running_stats=True)
49.9s 397 (2): ReLU(inplace=True)
49.9s 398 (3): Dropout2d(p=0.1, inplace=False)
49.9s 399 (4): Conv2d(512, 25, kernel_size=(1, 1), stride=(1, 1))
49.9s 400 )
49.9s 401 (aux): Sequential(
49.9s 402 (0): Conv2d(1024, 256, kernel_size=(3, 3), stride=(1, 1), padding=(1, 1), bias=False)
49.9s 403 (1): BatchNorm2d(256, eps=1e-05, momentum=0.1, affine=True, track_running_stats=True)
49.9s 404 (2): ReLU(inplace=True)
49.9s 405 (3): Dropout2d(p=0.1, inplace=False)
49.9s 406 (4): Conv2d(256, 25, kernel_size=(1, 1), stride=(1, 1))
49.9s 407 )
49.9s 408 )
49.9s 409 INFO:main-logger:PSPNet(
49.9s 410 (criterion): CrossEntropyLoss()
49.9s 411 (layer0): Sequential(
49.9s 412 (0): Conv2d(3, 64, kernel_size=(3, 3), stride=(2, 2), padding=(1, 1), bias=False)
49.9s 413 (1): BatchNorm2d(64, eps=1e-05, momentum=0.1, affine=True, track_running_stats=True)
49.9s 414 (2): ReLU(inplace=True)
49.9s 415 (3): Conv2d(64, 64, kernel_size=(3, 3), stride=(1, 1), padding=(1, 1), bias=False)
49.9s 416 (4): BatchNorm2d(64, eps=1e-05, momentum=0.1, affine=True, track_running_stats=True)
49.9s 417 (5): ReLU(inplace=True)
49.9s 418 (6): Conv2d(64, 128, kernel_size=(3, 3), stride=(1, 1), padding=(1, 1), bias=False)
49.9s 419 (7): BatchNorm2d(128, eps=1e-05, momentum=0.1, affine=True, track_running_stats=True)
49.9s 420 (8): ReLU(inplace=True)
49.9s 421 (9): MaxPool2d(kernel_size=3, stride=2, padding=1, dilation=1, ceil_mode=False)
49.9s 422 )
49.9s 423 (layer1): Sequential(
49.9s 424 (0): Bottleneck(
49.9s 425 (conv1): Conv2d(128, 64, kernel_size=(1, 1), stride=(1, 1), bias=False)
49.9s 426 (bn1): BatchNorm2d(64, eps=1e-05, momentum=0.1, affine=True, track_running_stats=True)
49.9s 427 (conv2): Conv2d(64, 64, kernel_size=(3, 3), stride=(1, 1), padding=(1, 1), bias=False)
49.9s 428 (bn2): BatchNorm2d(64, eps=1e-05, momentum=0.1, affine=True, track_running_stats=True)
49.9s 429 (conv3): Conv2d(64, 256, kernel_size=(1, 1), stride=(1, 1), bias=False)
49.9s 430 (bn3): BatchNorm2d(256, eps=1e-05, momentum=0.1, affine=True, track_running_stats=True)
49.9s 431 (relu): ReLU(inplace=True)
49.9s 432 (downsample): Sequential(
49.9s 433 (0): Conv2d(128, 256, kernel_size=(1, 1), stride=(1, 1), bias=False)
49.9s 434 (1): BatchNorm2d(256, eps=1e-05, momentum=0.1, affine=True, track_running_stats=True)
49.9s 435 )
49.9s 436 )
49.9s 437 (1): Bottleneck(
49.9s 438 (conv1): Conv2d(256, 64, kernel_size=(1, 1), stride=(1, 1), bias=False)
49.9s 439 (bn1): BatchNorm2d(64, eps=1e-05, momentum=0.1, affine=True, track_running_stats=True)
49.9s 440 (conv2): Conv2d(64, 64, kernel_size=(3, 3), stride=(1, 1), padding=(1, 1), bias=False)
49.9s 441 (bn2): BatchNorm2d(64, eps=1e-05, momentum=0.1, affine=True, track_running_stats=True)
49.9s 442 (conv3): Conv2d(64, 256, kernel_size=(1, 1), stride=(1, 1), bias=False)
49.9s 443 (bn3): BatchNorm2d(256, eps=1e-05, momentum=0.1, affine=True, track_running_stats=True)
49.9s 444 (relu): ReLU(inplace=True)
49.9s 445 )
49.9s 446 (2): Bottleneck(
49.9s 447 (conv1): Conv2d(256, 64, kernel_size=(1, 1), stride=(1, 1), bias=False)
49.9s 448 (bn1): BatchNorm2d(64, eps=1e-05, momentum=0.1, affine=True, track_running_stats=True)
49.9s 449 (conv2): Conv2d(64, 64, kernel_size=(3, 3), stride=(1, 1), padding=(1, 1), bias=False)
49.9s 450 (bn2): BatchNorm2d(64, eps=1e-05, momentum=0.1, affine=True, track_running_stats=True)
49.9s 451 (conv3): Conv2d(64, 256, kernel_size=(1, 1), stride=(1, 1), bias=False)
49.9s 452 (bn3): BatchNorm2d(256, eps=1e-05, momentum=0.1, affine=True, track_running_stats=True)
49.9s 453 (relu): ReLU(inplace=True)
49.9s 454 )
49.9s 455 )
49.9s 456 (layer2): Sequential(
49.9s 457 (0): Bottleneck(
49.9s 458 (conv1): Conv2d(256, 128, kernel_size=(1, 1), stride=(1, 1), bias=False)
49.9s 459 (bn1): BatchNorm2d(128, eps=1e-05, momentum=0.1, affine=True, track_running_stats=True)
49.9s 460 (conv2): Conv2d(128, 128, kernel_size=(3, 3), stride=(2, 2), padding=(1, 1), bias=False)
49.9s 461 (bn2): BatchNorm2d(128, eps=1e-05, momentum=0.1, affine=True, track_running_stats=True)
49.9s 462 (conv3): Conv2d(128, 512, kernel_size=(1, 1), stride=(1, 1), bias=False)
49.9s 463 (bn3): BatchNorm2d(512, eps=1e-05, momentum=0.1, affine=True, track_running_stats=True)
49.9s 464 (relu): ReLU(inplace=True)
49.9s 465 (downsample): Sequential(
49.9s 466 (0): Conv2d(256, 512, kernel_size=(1, 1), stride=(2, 2), bias=False)
49.9s 467 (1): BatchNorm2d(512, eps=1e-05, momentum=0.1, affine=True, track_running_stats=True)
49.9s 468 )
49.9s 469 )
49.9s 470 (1): Bottleneck(
49.9s 471 (conv1): Conv2d(512, 128, kernel_size=(1, 1), stride=(1, 1), bias=False)
49.9s 472 (bn1): BatchNorm2d(128, eps=1e-05, momentum=0.1, affine=True, track_running_stats=True)
49.9s 473 (conv2): Conv2d(128, 128, kernel_size=(3, 3), stride=(1, 1), padding=(1, 1), bias=False)
49.9s 474 (bn2): BatchNorm2d(128, eps=1e-05, momentum=0.1, affine=True, track_running_stats=True)
49.9s 475 (conv3): Conv2d(128, 512, kernel_size=(1, 1), stride=(1, 1), bias=False)
49.9s 476 (bn3): BatchNorm2d(512, eps=1e-05, momentum=0.1, affine=True, track_running_stats=True)
49.9s 477 (relu): ReLU(inplace=True)
49.9s 478 )
49.9s 479 (2): Bottleneck(
49.9s 480 (conv1): Conv2d(512, 128, kernel_size=(1, 1), stride=(1, 1), bias=False)
49.9s 481 (bn1): BatchNorm2d(128, eps=1e-05, momentum=0.1, affine=True, track_running_stats=True)
49.9s 482 (conv2): Conv2d(128, 128, kernel_size=(3, 3), stride=(1, 1), padding=(1, 1), bias=False)
49.9s 483 (bn2): BatchNorm2d(128, eps=1e-05, momentum=0.1, affine=True, track_running_stats=True)
49.9s 484 (conv3): Conv2d(128, 512, kernel_size=(1, 1), stride=(1, 1), bias=False)
49.9s 485 (bn3): BatchNorm2d(512, eps=1e-05, momentum=0.1, affine=True, track_running_stats=True)
49.9s 486 (relu): ReLU(inplace=True)
49.9s 487 )
49.9s 488 (3): Bottleneck(
49.9s 489 (conv1): Conv2d(512, 128, kernel_size=(1, 1), stride=(1, 1), bias=False)
49.9s 490 (bn1): BatchNorm2d(128, eps=1e-05, momentum=0.1, affine=True, track_running_stats=True)
49.9s 491 (conv2): Conv2d(128, 128, kernel_size=(3, 3), stride=(1, 1), padding=(1, 1), bias=False)
49.9s 492 (bn2): BatchNorm2d(128, eps=1e-05, momentum=0.1, affine=True, track_running_stats=True)
49.9s 493 (conv3): Conv2d(128, 512, kernel_size=(1, 1), stride=(1, 1), bias=False)
49.9s 494 (bn3): BatchNorm2d(512, eps=1e-05, momentum=0.1, affine=True, track_running_stats=True)
49.9s 495 (relu): ReLU(inplace=True)
49.9s 496 )
49.9s 497 )
49.9s 498 (layer3): Sequential(
49.9s 499 (0): Bottleneck(
49.9s 500 (conv1): Conv2d(512, 256, kernel_size=(1, 1), stride=(1, 1), bias=False)
49.9s 501 (bn1): BatchNorm2d(256, eps=1e-05, momentum=0.1, affine=True, track_running_stats=True)
49.9s 502 (conv2): Conv2d(256, 256, kernel_size=(3, 3), stride=(1, 1), padding=(2, 2), dilation=(2, 2), bias=False)
49.9s 503 (bn2): BatchNorm2d(256, eps=1e-05, momentum=0.1, affine=True, track_running_stats=True)
49.9s 504 (conv3): Conv2d(256, 1024, kernel_size=(1, 1), stride=(1, 1), bias=False)
49.9s 505 (bn3): BatchNorm2d(1024, eps=1e-05, momentum=0.1, affine=True, track_running_stats=True)
49.9s 506 (relu): ReLU(inplace=True)
49.9s 507 (downsample): Sequential(
49.9s 508 (0): Conv2d(512, 1024, kernel_size=(1, 1), stride=(1, 1), bias=False)
49.9s 509 (1): BatchNorm2d(1024, eps=1e-05, momentum=0.1, affine=True, track_running_stats=True)
49.9s 510 )
49.9s 511 )
49.9s 512 (1): Bottleneck(
49.9s 513 (conv1): Conv2d(1024, 256, kernel_size=(1, 1), stride=(1, 1), bias=False)
49.9s 514 (bn1): BatchNorm2d(256, eps=1e-05, momentum=0.1, affine=True, track_running_stats=True)
49.9s 515 (conv2): Conv2d(256, 256, kernel_size=(3, 3), stride=(1, 1), padding=(2, 2), dilation=(2, 2), bias=False)
49.9s 516 (bn2): BatchNorm2d(256, eps=1e-05, momentum=0.1, affine=True, track_running_stats=True)
49.9s 517 (conv3): Conv2d(256, 1024, kernel_size=(1, 1), stride=(1, 1), bias=False)
49.9s 518 (bn3): BatchNorm2d(1024, eps=1e-05, momentum=0.1, affine=True, track_running_stats=True)
49.9s 519 (relu): ReLU(inplace=True)
49.9s 520 )
49.9s 521 (2): Bottleneck(
49.9s 522 (conv1): Conv2d(1024, 256, kernel_size=(1, 1), stride=(1, 1), bias=False)
49.9s 523 (bn1): BatchNorm2d(256, eps=1e-05, momentum=0.1, affine=True, track_running_stats=True)
49.9s 524 (conv2): Conv2d(256, 256, kernel_size=(3, 3), stride=(1, 1), padding=(2, 2), dilation=(2, 2), bias=False)
49.9s 525 (bn2): BatchNorm2d(256, eps=1e-05, momentum=0.1, affine=True, track_running_stats=True)
49.9s 526 (conv3): Conv2d(256, 1024, kernel_size=(1, 1), stride=(1, 1), bias=False)
49.9s 527 (bn3): BatchNorm2d(1024, eps=1e-05, momentum=0.1, affine=True, track_running_stats=True)
49.9s 528 (relu): ReLU(inplace=True)
49.9s 529 )
49.9s 530 (3): Bottleneck(
49.9s 531 (conv1): Conv2d(1024, 256, kernel_size=(1, 1), stride=(1, 1), bias=False)
49.9s 532 (bn1): BatchNorm2d(256, eps=1e-05, momentum=0.1, affine=True, track_running_stats=True)
49.9s 533 (conv2): Conv2d(256, 256, kernel_size=(3, 3), stride=(1, 1), padding=(2, 2), dilation=(2, 2), bias=False)
49.9s 534 (bn2): BatchNorm2d(256, eps=1e-05, momentum=0.1, affine=True, track_running_stats=True)
49.9s 535 (conv3): Conv2d(256, 1024, kernel_size=(1, 1), stride=(1, 1), bias=False)
49.9s 536 (bn3): BatchNorm2d(1024, eps=1e-05, momentum=0.1, affine=True, track_running_stats=True)
49.9s 537 (relu): ReLU(inplace=True)
49.9s 538 )
49.9s 539 (4): Bottleneck(
49.9s 540 (conv1): Conv2d(1024, 256, kernel_size=(1, 1), stride=(1, 1), bias=False)
49.9s 541 (bn1): BatchNorm2d(256, eps=1e-05, momentum=0.1, affine=True, track_running_stats=True)
49.9s 542 (conv2): Conv2d(256, 256, kernel_size=(3, 3), stride=(1, 1), padding=(2, 2), dilation=(2, 2), bias=False)
49.9s 543 (bn2): BatchNorm2d(256, eps=1e-05, momentum=0.1, affine=True, track_running_stats=True)
49.9s 544 (conv3): Conv2d(256, 1024, kernel_size=(1, 1), stride=(1, 1), bias=False)
49.9s 545 (bn3): BatchNorm2d(1024, eps=1e-05, momentum=0.1, affine=True, track_running_stats=True)
49.9s 546 (relu): ReLU(inplace=True)
49.9s 547 )
49.9s 548 (5): Bottleneck(
49.9s 549 (conv1): Conv2d(1024, 256, kernel_size=(1, 1), stride=(1, 1), bias=False)
49.9s 550 (bn1): BatchNorm2d(256, eps=1e-05, momentum=0.1, affine=True, track_running_stats=True)
49.9s 551 (conv2): Conv2d(256, 256, kernel_size=(3, 3), stride=(1, 1), padding=(2, 2), dilation=(2, 2), bias=False)
49.9s 552 (bn2): BatchNorm2d(256, eps=1e-05, momentum=0.1, affine=True, track_running_stats=True)
49.9s 553 (conv3): Conv2d(256, 1024, kernel_size=(1, 1), stride=(1, 1), bias=False)
49.9s 554 (bn3): BatchNorm2d(1024, eps=1e-05, momentum=0.1, affine=True, track_running_stats=True)
49.9s 555 (relu): ReLU(inplace=True)
49.9s 556 )
49.9s 557 )
49.9s 558 (layer4): Sequential(
49.9s 559 (0): Bottleneck(
49.9s 560 (conv1): Conv2d(1024, 512, kernel_size=(1, 1), stride=(1, 1), bias=False)
49.9s 561 (bn1): BatchNorm2d(512, eps=1e-05, momentum=0.1, affine=True, track_running_stats=True)
49.9s 562 (conv2): Conv2d(512, 512, kernel_size=(3, 3), stride=(1, 1), padding=(4, 4), dilation=(4, 4), bias=False)
49.9s 563 (bn2): BatchNorm2d(512, eps=1e-05, momentum=0.1, affine=True, track_running_stats=True)
49.9s 564 (conv3): Conv2d(512, 2048, kernel_size=(1, 1), stride=(1, 1), bias=False)
49.9s 565 (bn3): BatchNorm2d(2048, eps=1e-05, momentum=0.1, affine=True, track_running_stats=True)
49.9s 566 (relu): ReLU(inplace=True)
49.9s 567 (downsample): Sequential(
49.9s 568 (0): Conv2d(1024, 2048, kernel_size=(1, 1), stride=(1, 1), bias=False)
49.9s 569 (1): BatchNorm2d(2048, eps=1e-05, momentum=0.1, affine=True, track_running_stats=True)
49.9s 570 )
49.9s 571 )
49.9s 572 (1): Bottleneck(
49.9s 573 (conv1): Conv2d(2048, 512, kernel_size=(1, 1), stride=(1, 1), bias=False)
49.9s 574 (bn1): BatchNorm2d(512, eps=1e-05, momentum=0.1, affine=True, track_running_stats=True)
49.9s 575 (conv2): Conv2d(512, 512, kernel_size=(3, 3), stride=(1, 1), padding=(4, 4), dilation=(4, 4), bias=False)
49.9s 576 (bn2): BatchNorm2d(512, eps=1e-05, momentum=0.1, affine=True, track_running_stats=True)
49.9s 577 (conv3): Conv2d(512, 2048, kernel_size=(1, 1), stride=(1, 1), bias=False)
49.9s 578 (bn3): BatchNorm2d(2048, eps=1e-05, momentum=0.1, affine=True, track_running_stats=True)
49.9s 579 (relu): ReLU(inplace=True)
49.9s 580 )
49.9s 581 (2): Bottleneck(
49.9s 582 (conv1): Conv2d(2048, 512, kernel_size=(1, 1), stride=(1, 1), bias=False)
49.9s 583 (bn1): BatchNorm2d(512, eps=1e-05, momentum=0.1, affine=True, track_running_stats=True)
49.9s 584 (conv2): Conv2d(512, 512, kernel_size=(3, 3), stride=(1, 1), padding=(4, 4), dilation=(4, 4), bias=False)
49.9s 585 (bn2): BatchNorm2d(512, eps=1e-05, momentum=0.1, affine=True, track_running_stats=True)
49.9s 586 (conv3): Conv2d(512, 2048, kernel_size=(1, 1), stride=(1, 1), bias=False)
49.9s 587 (bn3): BatchNorm2d(2048, eps=1e-05, momentum=0.1, affine=True, track_running_stats=True)
49.9s 588 (relu): ReLU(inplace=True)
49.9s 589 )
49.9s 590 )
49.9s 591 (ppm): PPM(
49.9s 592 (features): ModuleList(
49.9s 593 (0): Sequential(
49.9s 594 (0): AdaptiveAvgPool2d(output_size=1)
49.9s 595 (1): Conv2d(2048, 512, kernel_size=(1, 1), stride=(1, 1), bias=False)
49.9s 596 (2): BatchNorm2d(512, eps=1e-05, momentum=0.1, affine=True, track_running_stats=True)
49.9s 597 (3): ReLU(inplace=True)
49.9s 598 )
49.9s 599 (1): Sequential(
49.9s 600 (0): AdaptiveAvgPool2d(output_size=2)
49.9s 601 (1): Conv2d(2048, 512, kernel_size=(1, 1), stride=(1, 1), bias=False)
49.9s 602 (2): BatchNorm2d(512, eps=1e-05, momentum=0.1, affine=True, track_running_stats=True)
49.9s 603 (3): ReLU(inplace=True)
49.9s 604 )
49.9s 605 (2): Sequential(
49.9s 606 (0): AdaptiveAvgPool2d(output_size=3)
49.9s 607 (1): Conv2d(2048, 512, kernel_size=(1, 1), stride=(1, 1), bias=False)
49.9s 608 (2): BatchNorm2d(512, eps=1e-05, momentum=0.1, affine=True, track_running_stats=True)
49.9s 609 (3): ReLU(inplace=True)
49.9s 610 )
49.9s 611 (3): Sequential(
49.9s 612 (0): AdaptiveAvgPool2d(output_size=6)
49.9s 613 (1): Conv2d(2048, 512, kernel_size=(1, 1), stride=(1, 1), bias=False)
49.9s 614 (2): BatchNorm2d(512, eps=1e-05, momentum=0.1, affine=True, track_running_stats=True)
49.9s 615 (3): ReLU(inplace=True)
49.9s 616 )
49.9s 617 )
49.9s 618 )
49.9s 619 (cls): Sequential(
49.9s 620 (0): Conv2d(4096, 512, kernel_size=(3, 3), stride=(1, 1), padding=(1, 1), bias=False)
49.9s 621 (1): BatchNorm2d(512, eps=1e-05, momentum=0.1, affine=True, track_running_stats=True)
49.9s 622 (2): ReLU(inplace=True)
49.9s 623 (3): Dropout2d(p=0.1, inplace=False)
49.9s 624 (4): Conv2d(512, 25, kernel_size=(1, 1), stride=(1, 1))
49.9s 625 )
49.9s 626 (aux): Sequential(
49.9s 627 (0): Conv2d(1024, 256, kernel_size=(3, 3), stride=(1, 1), padding=(1, 1), bias=False)
49.9s 628 (1): BatchNorm2d(256, eps=1e-05, momentum=0.1, affine=True, track_running_stats=True)
49.9s 629 (2): ReLU(inplace=True)
49.9s 630 (3): Dropout2d(p=0.1, inplace=False)
49.9s 631 (4): Conv2d(256, 25, kernel_size=(1, 1), stride=(1, 1))
49.9s 632 )
49.9s 633 )
50.4s 634 [2026-02-11 17:23:20,611 INFO train.py line 164 187] => loading weight 'initmodel/resnet50_v2.pth'
50.4s 635 INFO:main-logger:=> loading weight 'initmodel/resnet50_v2.pth'
50.5s 636 => Key state_dict not found, loading raw weights...
50.5s 637 [2026-02-11 17:23:20,692 INFO train.py line 174 187] => loaded weight 'initmodel/resnet50_v2.pth'
…
